…
│ │          env = <CustomEvaluationWrapper<TimeLimit<OrderEnforcing<PassiveEnvChecker<GoaliePe… │ │
│ │            F = <module 'torch.nn.functional' from                                            │ │
│ │                '/usr/local/lib/python3.12/dist-packages/torch/nn/functional.py'>             │ │
│ │        model = SimpleDreamerV3(                                                              │ │
│ │                  (rssm): RSSMCore(                                                           │ │
│ │                │   (obs_encoder): Sequential(                                                │ │
│ │                │     (0): Linear(in_features=89, out_features=256, bias=True)                │ │
│ │                │     (1): LayerNorm((256,), eps=1e-05, elementwise_affine=True)              │ │
│ │                │     (2): ReLU()                                                             │ │
│ │                │     (3): Linear(in_features=256, out_features=256, bias=True)               │ │
│ │                │     (4): LayerNorm((256,), eps=1e-05, elementwise_affine=True)              │ │
│ │                │     (5): ReLU()                                                             │ │
│ │                │   )                                                                         │ │
│ │                │   (rnn): GRUCell(268, 256)                                                  │ │
│ │                │   (prior_net): Linear(in_features=256, out_features=512, bias=True)         │ │
│ │                │   (posterior_net): Linear(in_features=512, out_features=512, bias=True)     │ │
│ │                │   (obs_decoder): Sequential(                                                │ │
│ │                │     (0): Linear(in_features=768, out_features=256, bias=True)               │ │
│ │                │     (1): LayerNorm((256,), eps=1e-05, elementwise_affine=True)              │ │
│ │                │     (2): ReLU()                                                             │ │
│ │                │     (3): Linear(in_features=256, out_features=256, bias=True)               │ │
│ │                │     (4): LayerNorm((256,), eps=1e-05, elementwise_affine=True)              │ │
│ │                │     (5): ReLU()                                                             │ │
│ │                │     (6): Linear(in_features=256, out_features=89, bias=True)                │ │
│ │                │   )                                                                         │ │
│ │                │   (reward_predictor): Sequential(                                           │ │
│ │                │     (0): Linear(in_features=768, out_features=128, bias=True)               │ │
│ │                │     (1): ReLU()                                                             │ │
│ │                │     (2): Linear(in_features=128, out_features=1, bias=True)                 │ │
│ │                │   )                                                                         │ │
│ │                  )                                                                           │ │
│ │                  (actor): Actor(                                                             │ │
│ │                │   (net): Sequential(                                                        │ │
│ │                │     (0): Linear(in_features=768, out_features=256, bias=True)               │ │
│ │                │     (1): LayerNorm((256,), eps=1e-05, elementwise_affine=True)              │ │
│ │                │     (2): ReLU()                                                             │ │
│ │                │     (3): Linear(in_features=256, out_features=256, bias=True)               │ │
│ │                │     (4): LayerNorm((256,), eps=1e-05, elementwise_affine=True)              │ │
│ │                │     (5): ReLU()                                                             │ │
│ │                │     (6): Linear(in_features=256, out_features=256, bias=True)               │ │
│ │                │     (7): LayerNorm((256,), eps=1e-05, elementwise_affine=True)              │ │
│ │                │     (8): ReLU()                                                             │ │
│ │                │     (9): Linear(in_features=256, out_features=12, bias=True)                │ │
│ │                │   )                                                                         │ │
│ │                  )                                                                           │ │
│ │                  (critic): Critic(                                                           │ │
│ │                │   (net): Sequential(                                                        │ │
│ │                │     (0): Linear(in_features=768, out_features=256, bias=True)               │ │
│ │                │     (1): LayerNorm((256,), eps=1e-05, elementwise_affine=True)              │ │
│ │                │     (2): ReLU()                                                             │ │
│ │                │     (3): Linear(in_features=256, out_features=256, bias=True)               │ │
│ │                │     (4): LayerNorm((256,), eps=1e-05, elementwise_affine=True)              │ │
│ │                │     (5): ReLU()                                                             │ │
│ │                │     (6): Linear(in_features=256, out_features=256, bias=True)               │ │
│ │                │     (7): LayerNorm((256,), eps=1e-05, elementwise_affine=True)              │ │
│ │                │     (8): ReLU()                                                             │ │
│ │                │     (9): Linear(in_features=256, out_features=1, bias=True)                 │ │
│ │                │   )                                                                         │ │
│ │                  )                                                                           │ │
│ │                  (target_critic): Critic(                                                    │ │
│ │                │   (net): Sequential(                                                        │ │
│ │                │     (0): Linear(in_features=768, out_features=256, bias=True)               │ │
│ │                │     (1): LayerNorm((256,), eps=1e-05, elementwise_affine=True)              │ │
│ │                │     (2): ReLU()                                                             │ │
│ │                │     (3): Linear(in_features=256, out_features=256, bias=True)               │ │
│ │                │     (4): LayerNorm((256,), eps=1e-05, elementwise_affine=True)              │ │
│ │                │     (5): ReLU()                                                             │ │
│ │                │     (6): Linear(in_features=256, out_features=256, bias=True)               │ │
│ │                │     (7): LayerNorm((256,), eps=1e-05, elementwise_affine=True)              │ │
│ │                │     (8): ReLU()                                                             │ │
│ │                │     (9): Linear(in_features=256, out_features=1, bias=True)                 │ │
│ │                │   )                                                                         │ │
│ │                  )                                                                           │ │
│ │                )                                                                             │ │
│ │           np = <module 'numpy' from                                                          │ │
…
